trained_model/S_mfcc.pth (torch, 811311 bytes, 56 tensors)

forward_fea_seq.0.fc1.weight f4 [190, 190]
00000000: 1f24 3e3d c3ca fe3b 3cda 73bd 54fb 69bc
00000010: f556 d63d ee8e 02bd f9e6 803d b34b 1cbc
00000020: 1e21 533d 0075 bcbc 04a4 45be bee1 683d
00000030: a569 953d ac22 1f3d f5f8 8abc a286 1bbd
00000040: a2fb 523d cdd9 553d 379f 3bbd 12dd bfbc
00000050: b97e 1c3e cc26 ab3d d6a0 753c 3a86 173e
00000060: dd90 b33d a510 84bd e8d9 d43c 8bda 363d
00000070: 8894 b73c 01ae 1cbc df1e b33d 0cf7 443d
00000080: 3c2e 9e3d 5a69 3d3d 3765 3cbd a125 753d
00000090: 147c 9cbc 2b9a 8b3c 4792 933d f12c 303d
000000a0: 7424 9abb 9933 9e3d 76b0 9c3d 9dba 7bbd
000000b0: 3ef7 5a3c ddb8 35bd c83b 283d edd2 e5bd
000000c0: 9dd8 223b 735b 8eba fdc3 db3a eb34 cebc
000000d0: f746 8a3c b3df f93c 5806 a43c 0ec0 0f3d
000000e0: 3224 3bbc 3767 0d3c dd66 4bbd 09fa bbbc
000000f0: 7871 403e a0d9 113d 3404 f83c ec2c 32bd
00000100: fd52 a03c 3935 d13c ce74 813d fa3d d5bc
00000110: e50a 073d f32f 093e 5dd7 bbbc 4ff8 83bd
00000120: ea38 ef3c d71b 9c3d cbae 10bd ddb0 af3d
00000130: c445 6ebc ebed 403d 005f 963d a50e 8a3c
00000140: 19cc bebd 6f41 7abd a4b8 b03d 0f34 953d
00000150: bd32 a4bc 262d a53d 9708 133b 7b57 5a39
00000160: ae6c 993c fa8e 2ebd 3169 c13d 4b5d 803c
00000170: 0919 90bb db4f 0cbc f365 6abd 8f2e bdbc
00000180: 40be 7c3c 65b5 f43b f2c7 d53c 7336 94bc
00000190: 18fb d63d 82c6 313b ea08 e93d 29e2 ae3d
000001a0: 60af e9b9 8c7d a33d 6cea 54bd a3de 103d
000001b0: 8f4c 33bc e4bf ff3d 4dcf 14bd aed3 07bd
000001c0: c63b 6bbd 593c 7d3c 1ecc a73d efb0 62bd
000001d0: 8f45 5d3c 9b23 ff3d 4aeb b6bb 3322 53bd
000001e0: 4986 a0bd fd32 473d 0e25 f53b ed87 d33d
000001f0: d7f8 4a3d 3e6a 41bc 6129 933c c36d ec3d
00000200: 9730 18bd b544 80bb e038 89bd e49b 4bbc
00000210: 2b51 b53c fd46 a139 234d 7f3d 2766 c33c
00000220: 9c38 ab3d 8f5b d43c 7374 7ebb 1ef3 00bc
00000230: 4c63 8e3d 5aeb fbbc e5f5 dc3c 1f1f e03d
00000240: 17cc bb3d 8073 443d 3f61 62bd 5853 0e3e
00000250: 3afb bb3b 4146 07bd 5a87 0dbd 2847 f4ba
00000260: 1f30 813d b6ec 183d cc3f f6bb f2cf b7bc
00000270: 8224 dc3d 2878 e93c 1f6b b93c 7792 4ebd
00000280: f254 c33c c516 9f3c 2ffe 8d3d b42f 1ebd
00000290: bc8c c3bc a562 c4bc 3939 313d 5bed d43d
000002a0: c477 833c 8cb7 57bd f8ec db3d 8685 093d
000002b0: 1958 10bd 4d1b 803d 184f 52bd 22f0 5dbc
000002c0: e9f0 ffbb aec9 b7bb 0c07 5b3a 754d 253d
000002d0: 898c 6cbc 2ef9 1bbd e845 1d3d d65b 283c
000002e0: fefa c6bc 2beb 183d ec0c 90bd b300 f2bc
000002f0: 4b9c 913d 6a56 d43d 3b52 393c cebd dbbb
00000300: 7f1e 213c d22a 383d 5c3c d03d fd9b d7bd
00000310: 64bf abbd f1ab 9a3c ceba 87bd 0b1f 41bd
00000320: 2169 29bd 09c0 ff3d 3b2e 553d 401a 01bd
00000330: 8259 1dbe 9b64 ca3d d1de c0bd 21db 893d
00000340: 92aa 043d fc88 b33d ae3e 49be 51ce b0bc
00000350: b527 0c3e 905f 5bbd d344 a6bc 43d8 383d
00000360: 636a 3d3d 8a53 e8bd 3a07 aa3d 7f2c 6cbd
00000370: 9fc0 76bd 9c6a 89bd 643e 5cbd c812 b33d
00000380: 6b98 73bd 1ac4 13be f560 9c3c 924e 263e
00000390: 60c0 18bd 1fea 4abd a16a 9fbd a296 0cbd
000003a0: be75 a43d 7a15 4f3d cdb4 14be d13d 28bd
000003b0: 047f 4c3d 4614 713d 7065 ccbc 1830 373d
000003c0: c88b 103d 0b85 adbd 68ae bb3d 6c87 37bd
000003d0: b88b 13bd eb76 c73d 0ed4 c7bd 2d6e 3c3c
000003e0: 01f6 b9bc b6e1 25bc 6e79 48bd 2d7f 82bb
000003f0: 66fe 48bd 0b8e d43c 12a8 34bd 2d58 383e
0.046421167 0.007775636 -0.059534296 -0.014281113 0.104658045 -0.03187459 0.062940545 -0.0095395325
0.051545255 -0.023005009 -0.19300848 0.05685591 0.07295541 0.038851425 -0.016964415 -0.037970193
0.051509507 0.052209664 -0.045806136 -0.023420844 0.15282716 0.08357009 0.01499196 0.14797297
0.08767865 -0.06448487 0.025982812 0.044642013 0.022409692 -0.00956297 0.087461226 0.048087165
0.07723662 0.04624305 -0.045994963 0.05985034 -0.019102134 0.017041286 0.072056346 0.04301161
-0.0047040526 0.07724685 0.07650845 -0.061457265 0.013364611 -0.044365752 0.041072637 -0.112218715
0.002484835 -0.0010860994 0.0016766783 -0.025171718 0.016879542 0.030502176 0.020022556 0.035095267
-0.011422204 0.008630565 -0.049658645 -0.022946374 0.18793285 0.035607934 0.030275442 -0.043499872
0.019570822 0.025538074 0.06321107 -0.02603053 0.032969374 0.13397197 -0.022929842 -0.064438455
0.029201943 0.076224975 -0.035322946 0.08578656 -0.014543001 0.047101896 0.073423386 0.016852686
-0.09316272 -0.06109756 0.086289674 0.0728532 -0.020043725 0.08065252 0.002243554 0.00020822689
0.01872858 -0.04261682 0.09443892 0.015669486 -0.0043975157 -0.008563961 -0.057226133 -0.02309349
0.0154262185 0.007467913 0.026096318 -0.01809237 0.10497111 0.0027126377 0.11378653 0.085392304
-0.00044571888 0.079829305 -0.051981375 0.035368573 -0.010943546 0.12487772 -0.03633051 -0.033160858
-0.05743005 0.0154562825 0.08193229 -0.05534452 0.013505354 0.12457963 -0.005582248 -0.051546287
-0.07838113 0.04863261 0.007481224 0.1032866 0.04955372 -0.011805115 0.017964067 0.11544373
-0.037155714 -0.0039144405 -0.06700301 -0.012427304 0.02213343 0.00030761203 0.062329423 0.023852421
0.08360407 0.025922565 -0.0038826733 -0.007870464 0.06952533 -0.030751873 0.02697272 0.10943436
0.091697864 0.047961712 -0.055268522 0.1389898 0.0057367356 -0.033025984 -0.03455291 -0.0018636929
0.063080065 0.03733512 -0.0075149294 -0.022438023 0.10749151 0.028499678 0.022634087 -0.05043265
0.023844216 0.019420037 0.06933247 -0.038619712 -0.023870818 -0.023972819 0.043267462 0.103968345
0.01604832 -0.05266528 0.107385576 0.033574603 -0.035240266 0.06255207 -0.05134496 -0.013546022
-0.007810701 -0.005608759 0.0008355237 0.040357072 -0.014437803 -0.038079433 0.038396746 0.010275802
-0.024289604 0.03733365 -0.07033715 -0.029541349 0.07109889 0.10368045 0.011311109 -0.006705976
0.009833931 0.04496271 0.10167763 -0.10527799 -0.08386114 0.018880816 -0.06627427 -0.047148746
-0.041360024 0.124878 0.052046042 -0.031519175 -0.15366176 0.0988247 -0.09417499 0.06731249
0.03238923 0.08766362 -0.19652817 -0.021582754 0.13687022 -0.053557932 -0.02029649 0.04512812
0.046244036 -0.11344059 0.083021596 -0.057659622 -0.06024229 -0.06709787 -0.053770438 0.087438166
-0.05947153 -0.14430276 0.019089201 0.1624091 -0.037292838 -0.04953968 -0.0778401 -0.034323342
0.0803027 0.05055759 -0.14522095 -0.041074578 0.04992582 0.058857225 -0.024950713 0.0447236
0.035289556 -0.084726416 0.09164125 -0.044806883 -0.036021918 0.09739479 -0.09757243 0.011500877
-0.022700312 -0.010124614 -0.04894393 -0.0039824457 -0.04907074 0.025946638 -0.044105597 0.18002386

forward_fea_seq.0.fc1.bias f4 [190]
00000000: a67b 25bd 0716 fe3b 5ed7 5cbd 8b36 39bc
00000010: 8dba 1bbd 3590 833d 27e6 173d 2631 d5bd
00000020: df5e 143c 8e0a cf3c bd09 c7bd 2b40 e0bd
00000030: e66f 18bd aec3 07bd 3faf 3a3d 25f8 c8bd
00000040: 05b7 6b3d e362 a4bd 520e 20bd e3e8 a8bd
00000050: 001d 533c 11da 80bc 32b8 a4bb 46bf 2a3d
00000060: f76d e33b fa18 563a 9354 a53c 805c a2bd
00000070: 53b8 283d 3c85 67bc b10d 4e3b 3b12 703c
00000080: 802d 3d3d b60b cb39 99b9 53bd c3a6 b3bd
00000090: 4374 14bc b4d0 a03b d2fc bcbb 1e36 fe3c
000000a0: 75a7 69bc 25d3 5ebc c874 083c 35a6 0f3d
000000b0: a1b2 cdbb cc55 98bd e007 193d fb87 213c
000000c0: 15a5 bebc f7d8 f73c 8d8b d33c 99f6 55bd
000000d0: c9a3 043d f0d3 e1bd 2906 e2bd 8baf 883c
000000e0: 0083 243d 7ccd 36bb f81e 96bd d5d6 053d
000000f0: ab48 80bc 3ac7 36ba 98c5 783c 2752 19bd
00000100: 417d 8d3c 4046 9a3c abf8 913c 4b3a 963c
00000110: d86c 113d 6e5c 553c eb0f d5bd 7ad2 a73c
00000120: 0b7f f43b b4eb 853c cd2f 093d 2ea4 383c
00000130: 1bfe fe3b 48d7 95bc ebb0 b1bc 387b 303d
00000140: 8d05 9dbd 10ff b63c 14be a0bd d019 63bd
00000150: 5949 2bbd 9833 ee3c 9628 0abd bc24 b43c
00000160: a6be 24bb 79a7 e53b 1b27 cf3c 79f2 033d
00000170: 72af 18bc ad70 4bbd 3d68 14bc ed55 693c
00000180: 4b94 c9bd ecea 71bc 95ca 2bbd a85b 2a3c
00000190: fb66 d73b c4dd 8cbc 5282 8a3c 8d38 d23c
000001a0: 9778 f8bd 952f 823c 5161 a5bb dd04 2ebd
000001b0: 2e32 f83c 1124 b63c efc6 c1bb 06b0 bebd
000001c0: 68f8 143d 9a2d 67bd 3ddd 94bc 041d 0c3c
000001d0: a4db 9f3b c4a1 483d c5a5 d2bb 78a3 08bd
000001e0: 48cc ccbd c4ea d73c 627f 1a3d 7093 ea3c
000001f0: 6ae7 ac3b 19e3 5b3d 2a9f 90bd dd48 f33b
00000200: af7f 103d b504 04be adf5 103d d381 103d
00000210: ac5a 5fbd c442 06bd f496 7fbd 1bd3 0d3d
00000220: 436c bebd b8d2 b33b 179c 4bbc f706 cd3b
00000230: ee23 af3c ea53 23bd 9899 683d eb32 ac3c
00000240: d424 873d cb3d 3cbc 3066 deba 0740 3e3d
00000250: b9b1 60bc f78f 3f3d 27b9 93bd 8da0 35bd
00000260: af06 d9bc 9aa6 ab3c 2204 bf3c 05cb fa3a
00000270: 086e 953c 7404 40bc fc28 8f3c 996f 833c
00000280: 39ea d13c 78aa f33b 7524 85bc 7529 b2bc
00000290: 9a1f 01bb c75f 4fbd c31f 4cbd c3cd 083d
000002a0: 5861 013d 69c2 dcbd 6d9e c33c 9ca8 93bc
000002b0: b890 64bc da57 873c 346b 29bc d5cc f6bc
000002c0: afc1 183d 603a d33c e0a2 5f3c fc61 3fbc
000002d0: 4591 b23c 255d 293c c50a fa3c 4d2b 833c
000002e0: 9dab a3bc f6ee e23c 3c03 ebbb b731 5cbd
000002f0: 7c2e b93c d63c e13c
-0.040401123 0.0077540907 -0.053916328 -0.011304508 -0.038019706 0.0642399 0.037084725 -0.10409765
0.009055822 0.025273588 -0.09718654 -0.10949739 -0.03721609 -0.0331456 0.045577284 -0.09812955
0.057547588 -0.08026674 -0.039076157 -0.082475446 0.012885332 -0.015728982 -0.0050268406 0.04168632
0.006940599 0.0008167174 0.02018193 -0.07927799 0.04119141 -0.014130887 0.0031441266 0.014652784
0.04618597 0.00038727903 -0.05169067 -0.08772042 -0.009060922 0.004907692 -0.005767443 0.031031664
-0.014261116 -0.0136001455 0.008328624 0.035070617 -0.0062773977 -0.074382395 0.037361026 0.00985908
-0.023272077 0.030254824 0.025823379 -0.052237127 0.03238276 -0.11026752 -0.11036331 0.016685268
0.040163994 -0.0027893474 -0.073301256 0.032675583 -0.01565965 -0.0006972436 0.015183829 -0.037431862
0.01727164 0.018832326 0.01781877 0.018338343 0.035504192 0.013022525 -0.10403427 0.020486105
0.0074614338 0.016347744 0.033492852 0.011269612 0.0077817566 -0.01829113 -0.021690806 0.04308626
-0.07667074 0.02233842 -0.078487545 -0.05544454 -0.041817997 0.029077336 -0.033730112 0.021990173
-0.002513805 0.0070084897 0.025287202 0.03221366 -0.009319173 -0.049668003 -0.0090580555 0.014241678
-0.09842738 -0.014765482 -0.041941244 0.010397829 0.0065735555 -0.01719559 0.016907845 0.025661731
-0.12132376 0.01589183 -0.0050470014 -0.042485107 0.030297365 0.022233995 -0.0059136073 -0.093109176
0.03636971 -0.056439973 -0.0181719 0.00855184 0.004878478 0.048982397 -0.0064284527 -0.03335902
-0.09999901 0.026357062 0.037719138 0.028634757 0.00527661 0.053683374 -0.07061608 0.0074244575
0.03527802 -0.1289242 0.035390545 0.03528006 -0.05452983 -0.032778516 -0.06239982 0.034625154
-0.09297993 0.005487766 -0.012427351 0.006256934 0.021379437 -0.03987495 0.056787103 0.021020373
0.06598821 -0.011489342 -0.001696771 0.04644778 -0.013714247 0.046768155 -0.072130494 -0.044342566
-0.026492445 0.020953465 0.0233174 0.0019133991 0.018240944 -0.011719812 0.017475598 0.016044425
0.025624381 0.007436093 -0.016252736 -0.021748284 -0.0019702674 -0.05062845 -0.049834978 0.033399355
0.031586975 -0.10779268 0.023879254 -0.018024735 -0.013950519 0.016521383 -0.010340501 -0.030126968
0.037294086 0.025784671 0.013649672 -0.011681076 0.021797786 0.010337149 0.030522713 0.016011858
-0.019979293 0.027701836 -0.0071720164 -0.05375835 0.022605173 0.02749483

forward_fea_seq.0.fc2.weight f4 [47, 190]
00000000: 15ec 863c 9a03 08bd 5dfc f7bc 3dd5 24bd
00000010: cccc 813d a4b0 dbba 3960 973d 6acd 11bd
00000020: 4e43 1f3c 3e8a 9fbd 6701 bb3c ed14 833d
00000030: 13a6 82bd 8c18 da3a 22c3 1dbd cc5b cb3d
00000040: 5791 a13c b3f0 5abd 80b2 e2bd cf79 ccbc
00000050: 155c b13c 620e 813d bfb0 b1bd c58f 83bd
00000060: cec0 063e 819b 923c ba49 29be 6851 883d
00000070: 4e89 bc3d e1e3 b5bd 4997 053e 6026 a6bd
00000080: a2a7 833d 7958 323b 2ee2 d5bd 23cd 163e
00000090: dfbc 66bd b9dd 58bd 13dc 62bd 1301 073d
000000a0: 51e9 a4bd a031 3e3d c459 ad3d 17fb 253b
000000b0: 9368 d7bd e33f a13d cfd0 a5bd a085 eb3c
000000c0: 4ac0 20be 74b1 1f3e b763 04bd 0655 55be
000000d0: bb49 11bd e0d2 463e a4a2 b23d e770 66bd
000000e0: 8f33 293d ac38 1b3d d9b0 1b3e 08ef e1bd
000000f0: 4658 debc 4e41 e13d b309 473d 5916 2cbe
00000100: 8464 593c e333 333d 5a18 37bd 080c 123d
00000110: e3e1 a9bd bc10 3fbd 5528 b3bd 2f65 803e
00000120: 76a2 b53d 01b8 21bc e097 b8bd 2201 0f3d
00000130: db7d 783d 7408 8a3b 9184 c9bd f08b 173e
00000140: e678 0d3c effc 59bc 4f1b 623d 2d19 46bc
00000150: 4d13 d33b bf4f a5bc 4d87 8a3b c09b 383e
00000160: 520c 25bd 790e de3d 3f2d c1bd 2c40 32be
00000170: 78a8 c3bc 4808 403e a7e1 e9bd 0610 29bd
00000180: dcd7 f53d 28b7 6bbd ac61 7e3d 86b8 0f3e
00000190: 22ce 0f3d d3fa ab3b 4eb4 96bd 544b 273d
000001a0: fb1c b93d ab69 aebd 29a8 583c 6ce3 c83d
000001b0: a95a 4cbd 79c7 56bd 66e1 8bbd 1487 313e
000001c0: 0d1b 373d 6f41 3d3d df38 cb3d cdc2 0f3c
000001d0: d355 97bd 30e1 fcbd cc2c 103e e33b dfbc
000001e0: 1857 9abd 5544 f03c e9d1 ce3d 95ce 2cbd
000001f0: d005 59bd 020f 1d3d 75a1 843d 21ee e8bd
00000200: 071c a73d cd7d e33d 1ed5 20bc c564 853d
00000210: 9740 fdbd af45 86bd 4153 4d3e f92d d23d
00000220: f355 1bbd e2fb bbbc 8e8b 203d 20c4 ccba
00000230: 7dde 643c b74b 56bc 0b71 343d 9e33 b9bb
00000240: ab5a c1bc a3dd 1b3e ebb8 943d c920 093e
00000250: 69fe 7cbd a8c6 55bd d13f 7bbd 7921 f43d
00000260: 1869 a4bd 5d13 f0bd c789 da3c f974 80bb
00000270: d6bb 62bd fafb ec3d 4d93 433d 54fc 4cbb
00000280: 9991 30be 1351 86bd 5ff9 993d 7574 93bd
00000290: 3c2a bd3c 3d7d 833c fa08 84bb 69be 233d
000002a0: 1faa f5bc 9754 ab3c eb28 f8bd 5d80 763d
000002b0: 2969 813d 67c0 063e d9ad afbd acc5 11bd
000002c0: eb65 ac3d a7a9 26bd 4dc7 5ebd 8c61 d73c
000002d0: cc72 fc3d 8d72 c3bd 0af0 1dbe 1f59 b33d
000002e0: a6ce c33d 6daf 953d d4da 80bd e9a3 a43d
000002f0: 5166 2a3d ac81 123e a0fa 87bc 957d 063d
00000300: 6c37 1e3d f501 b33c f94e 073d f704 e23c
00000310: c182 90bd 5429 4a3d c801 aabd ff67 6f3c
00000320: 8192 95bd c887 82bc 359c 12bb 48cd db3d
00000330: 95a3 8cbd de7e a93d 7350 21bd 7cf8 d03d
00000340: d817 26be 654d 75bb d4f1 403d 816a d73b
00000350: 04b4 1e3d 81e1 f2bc 77ef 83bd 094d febc
00000360: b5e9 6b3d c74d 89bc 2877 f8bd 2ed0 923d
00000370: 9e0e 86bc 563b 10be 6fcd b33c c27c 253d
00000380: c1ad 3e3d 0a0b c3bc ead3 37ba 34a7 2fbc
00000390: 55b5 1cbe e84e 04ba 3989 10bb 0135 883d
000003a0: d2d4 0a3d b0cd b9bd aae8 1d3c 2424 9035
000003b0: f756 453d 1897 e7bd 72fc 9c3d c193 cebd
000003c0: eba2 17bd 1d30 033e e23a 18bc 2213 92bd
000003d0: bc8a bdbc da5f 1f3d 183f e5bd 4ced a5bd
000003e0: 1e41 89bd 1609 073d 1b40 b43d d0f7 5b3c
000003f0: 7df0 c53b df19 3fbe 6b41 063d 8ec6 a53c
0.016469995 -0.03320656 -0.030271703 -0.040242422 0.0633789 -0.0016761017 0.073914 -0.03559629
0.0097206365 -0.077900395 0.022827817 0.06400476 -0.063793324 0.0016639396 -0.03851617 0.09929618
0.019722624 -0.053452205 -0.110692024 -0.024960427 0.021650353 0.063015714 -0.0867629 -0.06423906
0.13159487 0.017896416 -0.1653203 0.06656152 0.09205876 -0.08881355 0.13045992 -0.08112788
0.06428458 0.0027213378 -0.10443531 0.14726691 -0.056332465 -0.052945826 -0.05538566 0.03296001
-0.08052314 0.046434045 0.08464387 0.0025326663 -0.10517993 0.078735135 -0.08096468 0.02875024
-0.15698352 0.15595037 -0.032321658 -0.20833215 -0.035470705 0.1941638 0.087224275 -0.056260016
0.041308936 0.037895843 0.15204181 -0.1103192 -0.027141701 0.10998784 0.048593234 -0.168054
0.013268594 0.043750655 -0.044700958 0.035656005 -0.082950376 -0.04664682 -0.08747927 0.25077197
0.088688776 -0.00987053 -0.09013343 0.03491319 0.0606669 0.0042124335 -0.09839738 0.14799476
0.008634781 -0.013304933 0.055201825 -0.012090963 0.00644151 -0.020179627 0.004227555 0.18028164
-0.040294953 0.10842604 -0.09432458 -0.17407292 -0.023884043 0.18753159 -0.11419993 -0.041275047
0.120040625 -0.05754772 0.062104866 0.14035234 0.035108693 0.0052484064 -0.07358609 0.040843323
0.09038731 -0.08516248 0.013223686 0.09809002 -0.049891148 -0.052436326 -0.06830101 0.17336684
0.044703532 0.04620498 0.09922957 0.0087744715 -0.073894165 -0.123476386 0.14079589 -0.027250236
-0.07536143 0.029329458 0.10098631 -0.0421892 -0.05298406 0.03834439 0.06476108 -0.113735445
0.08159643 0.11107979 -0.009816436 0.06513361 -0.12365835 -0.0655626 0.2005129 0.10262675
-0.037923764 -0.022947256 0.03919559 -0.0015622415 0.013969061 -0.013079575 0.04405312 -0.005651905
-0.023602804 0.15221266 0.07261833 0.13391413 -0.061766062 -0.052191406 -0.061340157 0.11920447
-0.080278575 -0.11722443 0.026677025 -0.003920194 -0.055354916 0.11571498 0.0477479 -0.003127833
-0.17243041 -0.065584324 0.07518267 -0.07199947 0.023091428 0.01605093 -0.0040293904 0.03997651
-0.029988347 0.020914359 -0.121171795 0.06018101 0.06318886 0.13159333 -0.08578081 -0.035588905
0.08417877 -0.040689137 -0.054389287 0.026291631 0.12326583 -0.09543333 -0.15423599 0.08757233
0.095608994 0.073088504 -0.06291738 0.08039076 0.041601483 0.14307278 -0.016599 0.032834608
0.038627073 0.02185152 0.0330343 0.027590258 -0.07056189 0.04935582 -0.08301121 0.014612197
-0.07303334 -0.015933886 -0.0022370939 0.10732514 -0.06867138 0.08276151 -0.039383363 0.10203645
-0.16220033 -0.0037430164 0.047105625 0.0065739756 0.038745895 -0.029648544 -0.06442159 -0.031042593
0.057595927 -0.01676072 -0.12132102 0.071686134 -0.016364392 -0.14085135 0.021948544 0.04040218
0.046552423 -0.023808975 -0.00070124737 -0.010721017 -0.15303548 -0.00050471583 -0.0022054447 0.06650735
0.033894368 -0.09072435 0.009637991 1.0739354e-06 0.04817864 -0.11308116 0.076653376 -0.100867756
-0.037020605 0.12811323 -0.0092913825 -0.071325555 -0.023137443 0.03890977 -0.11193675 -0.081019014
-0.06701873 0.03296765 0.0880129 0.013425782 0.0060406313 -0.18662213 0.03277723 0.02023628

forward_fea_seq.0.fc2.bias f4 [47]
00000000: 8fc8 483c 0a69 193d ad38 033d c5ba 5fbd
00000010: e167 4fbd 6e7a bd3d affd 54bc d5f3 e23c
00000020: 0829 cebd 33c0 c1bb fde1 61bc 9952 2f3d
00000030: 1905 c63d 4e15 43bd 42e1 6d3d e0be 9abd
00000040: 6584 febc de66 a4bd e38a 06bc 07be a03c
00000050: 897d 50bc 70dd 69bd 78f7 003d 950c 723d
00000060: c6f6 bd3c 33d9 49bd e072 74bd b048 653d
00000070: 96a0 14bd e44f 36bd 8e31 79bd b3ad 8bbd
00000080: f451 ae3d e2e4 b83d 8941 debd 5c4d a73c
00000090: e314 cb3d 65d7 8b3d 5f50 433c c22f 86bd
000000a0: 385a 77bd 9d7d 473d 5e07 cebb 2572 383d
000000b0: cc97 e8bb c678 13bd 6a11 34bd
0.012254848 0.03745369 0.032036472 -0.054621477 -0.050636176 0.09251867 -0.012999936 0.027704159
-0.1006642 -0.0059128045 -0.01378679 0.04280338 0.09668941 -0.04762774 0.05807615 -0.07555938
-0.03106899 -0.08027433 -0.008211824 0.019621862 -0.012725242 -0.057095945 0.031486005 0.05909403
0.02318896 -0.049279403 -0.059679866 0.055977523 -0.03628596 -0.044509783 -0.060838275 -0.0682024
0.08511725 0.09028031 -0.108523436 0.02042263 0.09916093 0.068281926 0.011921017 -0.06552078
-0.060388774 0.04870378 -0.0062874993 0.04503073 -0.0070981737 -0.03600385 -0.04396192

forward_fea_seq.0.fc3.weight f4 [47, 190]
00000000: 232a a2bd 5679 bcbb 07d2 1f3e f205 cb3c
00000010: 541e 79bc fc3b de3c 7b80 33bd 67ec e63d
00000020: 4408 4f3d 5eb6 9ebd 885f 9fbc f025 6d3b
00000030: 823b a5bd d10b 23be 43ec ac3b a46c 94bc
00000040: 24a8 11be 86f7 843d 724a 9bbd 5ca4 053d
00000050: eed8 183d 7860 dd3d 4307 053d 67ec 95bd
00000060: a8a3 10bd 159c 813d 65dd bc3d 8ddb 8dbd
00000070: ef19 20bd 5310 91bc 4359 a13c 7d07 7abd
00000080: fbc0 fe3c 0d51 b93c 60b8 7bbd 3378 e73b
00000090: cec9 a2bd 5dd7 a43c 273d 753c 253d d6bc
000000a0: 1c51 34bd cb49 493b 84b3 823c fccc 9bbd
000000b0: 7930 0ebd cd21 aabb 2540 623d a8f2 a53c
000000c0: 1d82 63bd 765d 943d da4e aabd 5b73 afbd
000000d0: b96e 9ebd 26f8 ca3d a84e 163d e7a1 3fbc
000000e0: cf94 eb3d 01ce 2f3c feb5 2dbc da88 b7bd
000000f0: b613 a2bc b560 503d 9856 0d3d faea 60bd
00000100: f32d b53d 5e29 6d3d 5380 9f3c 7954 443d
00000110: bb76 c9bd 933a ed3d 48e3 c8bd 1f95 d93d
00000120: d358 8dbc 53ff 473d 6dc5 5bbd 544e 663b
00000130: a0d5 333d c7f6 f6bc 4740 3ebd 44f7 21bd
00000140: 1f1f 723d abba 2cbc 6921 5cbc 84a4 ec3b
00000150: 4c48 ad3c b18f 183e 78e4 6bbd 3b09 d63d
00000160: 9c0b 7fbd 70e2 583d 0db6 083e 58d6 52bd
00000170: 9d95 e3bc f4ae 82bc de08 423d ba48 f9bc
00000180: 7168 c7bc deae ebbc 7c87 7fbd c523 853d
00000190: 43ca e43b c14f cebd af2b 2a3d f3ad aebc
000001a0: 9a36 b63c 4716 48bc fa1e 533d 010d d93d
000001b0: 1bc0 84bd 3ed0 003e 6cc4 973d 8060 4bbd
000001c0: 1d46 843b 12f4 1b3c 84ba 44bc e768 b3bc
000001d0: f7fb 923d bee9 3cbd eaa8 8c3d 6331 113d
000001e0: 28e1 eabd 2f99 9d3d f9b8 053c 168b e43c
000001f0: 4ab6 1bbb 9cfd a93a 643a c33d 3ecf cf3d
00000200: d903 243d ab46 243d 25b8 c93b 6885 7bb9
00000210: 8a3a 9ebd 10af 6d3c 948b 0c3e 3639 0cbc
00000220: da26 eabc 2a4e f63a af4d d43d a751 c63b
00000230: f028 e73c 7dfa 2fbd 9a58 91bb c64f ce3b
00000240: e349 1f3c a422 e83d 4c29 10bd dfe3 993c
00000250: 2dd5 123d ea07 5c3d f8ae a6bd 4ca9 03bd
00000260: 61f3 0cbe d953 113e 9564 27bc ee7c 53bd
00000270: 24ba 723d 3313 c23d d82a 3a3d 4a42 af3d
00000280: 70e3 23be e4c2 acbd 42dd 503c 5b1e 44bd
00000290: a3ef 8c3d d145 58bd fd3e f33c 46ff 77bd
000002a0: cbf8 183d 1f11 2ebd b40d e6bc aa78 eb3c
000002b0: 193b 513d 248e 43bd aba4 44bd 3d50 043d
000002c0: 133b 2dbd 84b5 173d d22a ccbb ffe5 9cbc
000002d0: 0fcd d23d d5e9 043b e6ef d73d 57a6 4f3d
000002e0: 0c80 54bc 596a 99bc 1ce3 66bd a4e0 703d
000002f0: e18b d93d f8f3 133e d2e3 20bc 051f 0d3d
00000300: 40f1 543c fdd6 c33d f36a d0bd 0943 783c
00000310: 7c87 c4bd 4f6b c5bd 8664 05be 2634 d43c
00000320: 5a09 a53d b98a 13bd 49f4 1c3c c5f5 2ebd
00000330: 78c6 9c3c aab3 c5bc c9d2 debd ea94 1abd
00000340: 64c0 4dbd 7bf8 57bd b8af d6bc 28ea b3bd
00000350: c648 f3bd 6955 ff3c 283d 87bd 0766 1bbd
00000360: 0cbb 363d 987c afbd 1c84 b5bd 948d 063d
00000370: c07f d93d b264 69bd 9df9 1bbe ee62 42bd
00000380: 87b4 4abd 05bb e1bd d908 413d 7167 8c3d
00000390: fe9c 8fbd 3343 9fbd 4038 2d3d 58ce 86bd
000003a0: 31a5 edbc e24f 50bd 598c 183d c00c 01be
000003b0: 58fe ffbc d1b9 033d b9dd b33c fdd5 97bd
000003c0: c881 e4b9 0340 0d3d ced9 3f3d ad74 00be
000003d0: 8cde b33a 2279 8dbd b5f1 15bd f2ad 3e3d
000003e0: 0d5f 623d 8de4 bdbd f00d f5bd d997 95bc
000003f0: e8fd 5bbd be19 99bd 3d37 063d a6ac b43d
-0.07918193 -0.005751769 0.15607463 0.024783108 -0.015204985 0.027128212 -0.0438237 0.11275559
0.050544992 -0.077496275 -0.019454733 0.0036185943 -0.08067991 -0.15922476 0.005277188 -0.01811821
-0.14224297 0.06492524 -0.07582559 0.03262745 0.037316255 0.108094156 0.03247763 -0.07320481
-0.035312325 0.063285984 0.09221915 -0.069266416 -0.039087232 -0.01770798 0.019695884 -0.061042298
0.03109788 0.022621656 -0.06145513 0.0070638894 -0.079486474 0.020122224 0.014968193 -0.026152203
-0.044022664 0.003071415 0.01595474 -0.07607457 -0.034714196 -0.0051920176 0.055236954 0.02025731
-0.055544008 0.07244389 -0.08315821 -0.08566924 -0.077359624 0.09910612 0.036696106 -0.011696315
0.11502992 0.0107302675 -0.010602472 -0.08961649 -0.01978479 0.050873477 0.03450641 -0.05491159
0.08846655 0.05790078 0.01947037 0.047932122 -0.09837099 0.11583438 -0.098089755 0.10624146
-0.017254269 0.04882748 -0.053655077 0.0035141902 0.0439049 -0.03014697 -0.04644802 -0.03954245
0.05911171 -0.010542552 -0.0134357 0.00722176 0.021152638 0.14898564 -0.05759093 0.10450979
-0.06226693 0.052950323 0.13350697 -0.051473945 -0.027781302 -0.015952565 0.047371738 -0.030430187
-0.024341794 -0.028769907 -0.062385067 0.06500963 0.0069821193 -0.100738056 0.041545566 -0.02132318
0.022242833 -0.012212343 0.051543213 0.105981834 -0.06481954 0.12579438 0.074105114 -0.049652576
0.0040366785 0.00951864 -0.012007359 -0.021900607 0.07176965 -0.04612135 0.06868155 0.03544749
-0.114687264 0.07695233 0.008161777 0.027898353 -0.0023759776 0.0012969258 0.095326215 0.1014695
0.040042732 0.040106457 0.006155985 -0.00023986923 -0.07726009 0.01450707 0.1372512 -0.008558562
-0.028582979 0.0018791605 0.103663795 0.006052214 0.028217763 -0.042963494 -0.004435611 0.006296131
0.009722206 0.11334732 -0.035195634 0.018785415 0.03584783 0.053718485 -0.081388414 -0.032143876
-0.13764717 0.14192142 -0.010216852 -0.051632814 0.05925955 0.09476318 0.045451015 0.085575655
-0.1600473 -0.0843561 0.0127480645 -0.04788051 0.068816446 -0.052800957 0.029693121 -0.060546182
0.037346642 -0.042496797 -0.028082706 0.02874406 0.05108175 -0.047742978 -0.048008602 0.032303084
-0.042292666 0.03703834 -0.0062306905 -0.01915264 0.10293018 0.0020280976 0.10543804 0.050695743
-0.012969982 -0.018727468 -0.056368932 0.058807984 0.10622383 0.14448535 -0.009819942 0.03445341
0.012996972 0.0956249 -0.10176649 0.015152701 -0.09596154 -0.09639608 -0.13026628 0.025903773
0.08058424 -0.036020968 0.0095797265 -0.042714853 0.019137606 -0.024133522 -0.10880048 -0.03773967
-0.050232306 -0.052727204 -0.026206836 -0.08784896 -0.11879115 0.031168656 -0.066034615 -0.037939098
0.044611976 -0.08568686 -0.088630885 0.032849863 0.106200695 -0.056980796 -0.15231939 -0.047457628
-0.04948857 -0.11021999 0.04712758 0.068556674 -0.07012366 -0.07776489 0.042289972 -0.06582326
-0.029009433 -0.050857432 0.03724322 -0.1260252 -0.03124921 0.03215963 0.021956312 -0.07413862
-0.00043584243 0.034484874 0.046838574 -0.12544508 0.001372294 -0.0690787 -0.036607463 0.046552606
0.05526643 -0.09272108 -0.11965549 -0.018260883 -0.05370894 -0.07475613 0.032767523 0.088219926

forward_fea_seq.0.fc3.bias f4 [47]
00000000: 10c3 333d 3d58 fa3c 0f9a fb3b 0528 9d3d
00000010: b5e1 483d 4c8b 28bc 0c58 193d b2a8 333d
00000020: 22e9 c73d 08ae 203d af34 ad3c 84f9 183d
00000030: 756c e1bc 3ee7 8c3d dc38 0abd c3e6 bb3d
00000040: bb05 a23c 974a 903d a0fc 833d e1f0 623c
00000050: cdba 253d 9dc2 1f3d 4e70 693c ed48 b1bb
00000060: 3231 5c3a 1906 443d 4b39 433d b375 b03c
00000070: 5c63 eb3c b3bb 2c3d 19d8 853d ccc4 623d
00000080: 5331 85bc 7cd4 84bc 897a 793d 1262 203d
00000090: 5a12 a6bc e65d 09bd 7aae 913a 905a 0a3d
000000a0: 2333 923d b862 1e3d 04c2 f73c d538 253d
000000b0: 46de da3c 5827 0c3c 6ce8 763c
0.043887198 0.030559653 0.0076782773 0.07673649 0.049043376 -0.010287117 0.037437484 0.043862052
0.097612634 0.03922847 0.021143286 0.03734733 -0.027517537 0.068800434 -0.03374563 0.09174874
0.019778123 0.07045477 0.06444669 0.013851375 0.04046135 0.039003957 0.014247967 -0.0054103048
0.00083996647 0.047857378 0.04766206 0.021540498 0.028733902 0.04217119 0.06535358 0.05536346
-0.016258871 -0.016214602 0.060907874 0.039156027 -0.020272423 -0.033536814 0.001111462 0.033777773
0.0713866 0.038668364 0.030243881 0.040337402 0.026717316 0.008554302 0.015070062

forward_fea_seq.1.fc1.weight f4 [128, 190]
00000000: 0032 efbb 14c7 803c 853e 35bd c82c aeba
00000010: df6e 8fbc dd59 aebc 3346 bcbc 0cc3 4cbd
00000020: 047d 77bc f88a aebc 511a 46bd 953a c8bc
00000030: 14ac 8bbc 19f2 d1bc 6acb 27bc fa8e efbc
00000040: 96ab 41bd e21e 96bd eda3 29bd 90d4 3abc
00000050: 209d 263c df0d fa39 d519 8f3c 70a0 a9bc
00000060: 75f9 2bbd b4e5 6d3c 5705 df3c 0e02 053b
00000070: d954 05bd 1307 4a3c 4bed 5cbc f1cd 07bd
00000080: 1e9b 67bd c94d 9a3d 25e9 30bd ee2b 20bd
00000090: 2a15 82bd 25da 153d b58b 12bd f018 9fbc
000000a0: 546a 0ebd 110e e0bc c1b9 7cbd 680b daba
000000b0: 5ff2 943c 6839 23bd 6e54 75bc 6015 323d
000000c0: dca6 5abb ff40 c9bc 7981 103c 0be5 6338
000000d0: 523f b93d 90c5 bdbc a45f 24bc 5432 5fbd
000000e0: 502c a03c cba5 6bb8 aaf3 f7bc fb47 67bd
000000f0: 9871 ff3c 3050 bf3c 4609 143c 3f52 2bbd
00000100: c891 4d3d 2c7f 963d c293 ad3c c21b 753d
00000110: 370a e7bb 02ed 2b3d bc79 1ebd 42a5 993d
00000120: 209d fd3c 1478 a43c 8058 20bd 7be7 d43b
00000130: bf89 27bc 1668 90bc 4c37 c83c 9400 dabd
00000140: d5c5 debb aeff 333c 1b34 19bc 51bd 98bc
00000150: 420a 853b 02fb 773d 6f28 c4bc 9289 1d3c
00000160: 7998 ef3c b650 0fbc df44 be3d 424c f53c
00000170: 9287 3ebc caf3 59bc 4ae1 053d 9162 f03c
00000180: 6592 77bd bfd8 f03c 29b4 55bd 6f57 073b
00000190: 4789 8a3d c93b ab3b ea80 913d 085f 90bc
000001a0: fcbe 1ebd e467 393d fccb ea3d f556 dfbb
000001b0: c4b2 68bc a3c3 8b3d 8922 083b 3489 4fbd
000001c0: 279f f2bb d689 b8bc f0b6 c43c e0dc 78bc
000001d0: 0bb9 6a3c 289f 93bc 209f 18bc c94b 563b
000001e0: a326 23bc 585e a93c f6d4 2abd e154 ba3c
000001f0: 30e6 983d 62b6 04bc 08bb 0d3c 86df 0b3d
00000200: 3a06 ee3a 003e 4abc ab9e 6f3c 1e34 3b3d
00000210: e1a8 d9bc 7f32 123c 1b56 803c 81ae f63c
00000220: 0c17 fabc cbfa 9c3a 5037 233d 4dfb 873b
00000230: d65a 493d 1cf1 973c 0b7d 643b 3207 993d
00000240: 6432 86bc b816 ea3c 1e4a 60bc 4597 cb3c
00000250: a79d d3bc 320a c33c 7897 cabc 5168 53bc
00000260: 5683 62bd cd22 f43d 40e0 753a 193c 28bc
00000270: 0668 d13c f496 533c 929e 49bc 1623 d43c
00000280: ce43 233d 3e7f 36bd 6a16 8dbb 2b6f debb
00000290: 404a 7b3d 7ec5 ebbc 5824 d73b 4a89 9d3b
000002a0: 9d5b 48bb 7fe5 65bd 3b87 353d 3293 3cbb
000002b0: 87e5 633c a937 8c3d 6c7a 48bd 217e 9b3d
000002c0: 7145 1ebd 776c c8b9 8a33 f6bc 39f9 8bbd
000002d0: f69f ad3c c266 23bb 66c4 c13b 6859 fe3c
000002e0: 24a9 363c 62a6 363c 3430 7c3b c5ab ae3c
000002f0: e65d 103d a360 5f3d 7b7f 3cbc cc01 8bbd
00000300: 20e4 8eba a916 dc3c a735 9a3c 942e d4bc
00000310: 294f b2bc 3283 15bd bb08 cb3c 7656 61bb
00000320: e837 65bd da04 903b 4f1e 1e3c d010 9b3b
00000330: 2ea8 04bc ac52 8dbc 926f 963c 7ff7 c9bb
00000340: 28a7 b2bc 01d1 a3ba b30d 1a3d 14d8 633c
00000350: 4bd1 733d 20ec 09bc 43b3 67bc 035a ed3c
00000360: 2d66 86bc 1bb5 04bc a6c1 5dbb f1ee 04bd
00000370: b680 1cbb 3851 033c 59e5 92bd 6fea 073d
00000380: 0e02 e3bb e1f3 31bd 9d53 17bd 6612 4a3d
00000390: 578d 0f3c 70ba 73bc f019 6e3c 1d43 01bd
000003a0: 3fae fcbc 31c8 ae3c 014c 7b3b cdb3 d33b
000003b0: c95a aabd b1a9 2ebc fa3f 0fbc 9d17 373d
000003c0: 09b4 0dbc e27d 36bd 83c9 3c3d 6753 abbc
000003d0: 7cf3 2dbd a038 cfbb 687c d73c 5900 c33c
000003e0: 4399 ccbc 4cb0 d23c 7266 aebd 963d b5bc
000003f0: 2f76 31bd 843c adbc ba01 9e3a a10f 133d
-0.0072996616 0.015719928 -0.044249076 -0.0013288492 -0.017508922 -0.021283085 -0.022982692 -0.0499907
-0.01510549 -0.0213065 -0.04836494 -0.024441997 -0.017049827 -0.025628136 -0.010241369 -0.029242981
-0.047282778 -0.07330109 -0.041416097 -0.011403218 0.010169297 0.0004769405 0.017468372 -0.020706385
-0.041985948 0.0145200975 0.027224226 0.0020295414 -0.03255162 0.012330788 -0.013484309 -0.033155385
-0.056544416 0.075343676 -0.043191094 -0.039104395 -0.06351693 0.036584992 -0.035777766 -0.01942107
-0.03476937 -0.027350457 -0.061700586 -0.0016635479 0.018181978 -0.03984967 -0.014973743 0.043477416
-0.0033363616 -0.024567125 0.008819931 5.433433e-05 0.090452805 -0.023165494 -0.010032568 -0.054491356
0.01955238 -5.6182773e-05 -0.030267555 -0.05646513 0.031182095 0.023353666 0.009035414 -0.041826483
0.050187856 0.07348475 0.02118862 0.059840925 -0.0070507783 0.041974075 -0.038690314 0.075022236
0.030958712 0.020076789 -0.0391469 0.006497321 -0.010225712 -0.017627757 0.02444043 -0.106446415
-0.0067984858 0.010986252 -0.009350802 -0.01864496 0.0040600607 0.060542114 -0.023945061 0.009615319
0.02924751 -0.00874727 0.0929048 0.02994359 -0.011629002 -0.013302753 0.032685556 0.029343875
-0.060442347 0.029400228 -0.052173767 0.002065148 0.06764465 0.005225633 0.071046665 -0.01762344
-0.038756356 0.045265093 0.11464688 -0.006815786 -0.014202777 0.06824424 0.0020772538 -0.050667956
-0.0074042263 -0.022526663 0.024013013 -0.015189379 0.014326344 -0.018020228 -0.009315282 0.003269898
-0.009957942 0.02067487 -0.041707 0.022745552 0.0746578 -0.008100124 0.008650549 0.034148715
0.0018159815 -0.0123438835 0.014625232 0.045704 -0.026569786 0.008923172 0.015666058 0.030112507
-0.030528568 0.0011976598 0.039847672 0.0041498304 0.049158894 0.018547587 0.003486457 0.074720755
-0.01638145 0.028575286 -0.013689546 0.024852404 -0.02583201 0.023808572 -0.024730429 -0.012903289
-0.055301033 0.119207 0.0009379424 -0.010268235 0.025562298 0.012914408 -0.0123058725 0.025895637
0.039859585 -0.04455494 -0.0043056505 -0.0067881546 0.061350107 -0.028780695 0.006565612 0.004807626
-0.0030572184 -0.056127068 0.04431842 -0.0028774259 0.013909704 0.06846554 -0.048944876 0.075924166
-0.038640443 -0.00038227785 -0.030053873 -0.06834645 0.02119444 -0.0024933075 0.005913305 0.031048492
0.011148725 0.011148067 0.003848088 0.02132214 0.0352458 0.05453552 -0.011505003 -0.06787452
-0.0010901727 0.026866274 0.018824412 -0.025901116 -0.021766262 -0.03650207 0.024784436 -0.003438381
-0.05596152 0.0043951096 0.009650781 0.004732229 -0.008096738 -0.017251335 0.018363748 -0.006163537
-0.021808222 -0.0012498201 0.03761072 0.0139064975 0.05952577 -0.008418113 -0.01414186 0.028973585
-0.016406143 -0.0080998195 -0.0033837347 -0.032454435 -0.0023880429 0.0080149695 -0.07172651 0.033182558
-0.006927735 -0.04344547 -0.036944974 0.049333952 0.008761725 -0.014875993 0.014532551 -0.031558145
-0.030844806 0.021335693 0.0038344862 0.006460643 -0.08318097 -0.010660575 -0.008743281 0.044700254
-0.008648881 -0.044553645 0.046090614 -0.020913793 -0.042468533 -0.006323889 0.026304439 0.023803877
-0.024975425 0.02571883 -0.08515634 -0.022124093 -0.0433256 -0.02114702 0.0012054958 0.035903577

forward_fea_seq.1.fc1.bias f4 [128]
00000000: c3cb 333d d826 293c 8b2a 863d 7a99 51bd
00000010: 11c4 8abd ae56 07bd c83c 2f3d 7b0f 2cbd
00000020: c38c 873d 479e 983d f61d 50bd ad17 983b
00000030: 0390 723d 21ec 593d dadd 8abd 1097 38bd
00000040: 5593 05bb 2263 7d3d cb4b 0dbd 5bc6 2d3b
00000050: 6cb3 3f3d c929 aabd d619 113d 85d1 8b3c
00000060: 0390 223d f09a 2bbd 8615 33bd 62e4 debc
00000070: f71c 2c3d 7591 8b3b 3959 2a3d 69a5 483d
00000080: d10e f1bc 3132 ecbc df8f 7fbd 0396 e93c
00000090: 67c6 48bd b451 0fbd 7b8e 6ebd 989a 35bd
000000a0: ff11 36bd f2e7 20bd bc79 3cbd 4c2b 5fbd
000000b0: 40cf 7ebd 0c02 3c3d 8a6d 693d 5836 9bbd
000000c0: 2caf 07bd c90d 4fba 3e0c 473d 789f 4ebc
000000d0: e3b7 6bbd 33f4 e3bc 5a60 cc3c 182f 40bd
000000e0: b013 aabc 55a3 87bd f7fb 653d 4e31 b7bc
000000f0: 2c0e 30bd 0b51 ca3c f58f 453c 9456 543d
00000100: aeb9 f53c 6fc1 5cbd d564 72bc d5c2 28bd
00000110: 2cee 8bbd c4e5 86bd 932b 76bd ffb9 37bd
00000120: 285e d4bc 7d84 6a3d 7444 963c 55b3 343c
00000130: abd4 6cbd ade8 17bd 6c22 6f3d a15c 59bd
00000140: cd36 bdbc 6372 3a3d b196 7abd fc48 75bd
00000150: 8488 9fbc 5578 5ebd 5e14 7ebc 22d9 b1bb
00000160: 685c 6a3d 0782 293c bce5 44bc a397 3cbd
00000170: ab78 89bd c85a 973c f223 09bd baa0 8cbd
00000180: e2ec 67bd 4268 1fbd 0df1 b93c b3a9 d8bc
00000190: 4090 22bd 53f3 2abc decc ee3c d64a 16bd
000001a0: 0a81 2ebd b2d7 8abb 097a 88bd 2db9 03bd
000001b0: 2ff9 25bd 7317 503d 0d5b 973c a9be 813b
000001c0: d713 91bc 2fe5 8fbd dfd6 27bd 785f 8a3c
000001d0: e897 40bd 30b3 443d ad79 18bd 7778 36bd
000001e0: c6fc 6e3d 30b7 493d b5a3 41bd fe61 e2bb
000001f0: 1b24 483c 5439 4bbd 413d 4e3c d834 073d
0.043895494 0.0103242025 0.06551083 -0.051171757 -0.06775678 -0.03304165 0.042782575 -0.04200695
0.06618645 0.07452064 -0.050809823 0.0046414942 0.05921937 0.053203706 -0.06780596 -0.04506594
-0.0020382006 0.06186212 -0.03449611 0.0026515934 0.04680197 -0.08308751 0.03542503 0.01706768
0.03968812 -0.041895807 -0.0437217 -0.02720851 0.04201981 0.004259283 0.041588996 0.048985872
-0.02942601 -0.028832527 -0.062393066 0.028513914 -0.049017336 -0.034990028 -0.05824135 -0.044336885
-0.044450756 -0.0392837 -0.046014532 -0.05448465 -0.062209368 0.04590039 0.05698923 -0.075787246
-0.03312604 -0.00078984775 0.04859566 -0.0126112625 -0.057548415 -0.027826404 0.024948288 -0.046919912
-0.02076134 -0.0662295 0.056148496 -0.022362377 -0.042982265 0.024696847 0.012058248 0.05184038
0.029995766 -0.05389541 -0.014794548 -0.04120143 -0.06832537 -0.06586793 -0.06010015 -0.044855114
-0.025923803 0.057255257 0.018343188 0.011029084 -0.057820003 -0.03708713 0.058382437 -0.053066853
-0.02309742 0.045519244 -0.061178867 -0.059884056 -0.019474275 -0.054313976 -0.015507786 -0.0054274956
0.05721703 0.010345942 -0.012017664 -0.04604305 -0.06712469 0.018475905 -0.033481546 -0.06866594
-0.056622393 -0.038917787 0.02269795 -0.026448106 -0.03968835 -0.01043399 0.029150423 -0.036692463
-0.04260353 -0.0042371387 -0.06663901 -0.03215902 -0.040520843 0.050803613 0.018476034 0.003959496
-0.017709656 -0.07026135 -0.0409764 0.016891226 -0.04701987 0.04802245 -0.037225414 -0.044548478
0.058346532 0.049246967 -0.047275264 -0.0069086542 0.012215639 -0.04961522 0.012587846 0.03300938

forward_fea_seq.1.fc2.weight f4 [64, 128]
00000000: d8a3 c8bc 036d 8c3c eb49 04bd 1104 f43c
00000010: 54e4 893d b1a3 083d 5be2 bcbd 62cf 26bd
00000020: 04f1 b3bd 2514 b7bc 7598 debb 3322 8a3c
00000030: 9a6f 75bd 4746 da3c 135a 993d ecca 2ebd
00000040: d40c 1ebd e3be b83c c2e0 ec3b 72c8 633d
00000050: 14e7 2abd 5343 153d 62fc 8abd 7d8a 2e3c
00000060: 9e66 8b3c f620 263d 037a b8bc 5173 59bd
00000070: 4717 b3bd 82d3 113b aad8 3c3b 614a 7cba
00000080: 5aef e0bc 738a 0bbd e2f0 a43d b72c 813c
00000090: 0955 703d b275 0fbd 3fa6 883d 8c8e 473c
000000a0: a5f5 00bd 83c1 c2bc 795c 4f3d f8e2 7e3c
000000b0: 64f6 b43c 6944 38bc 8d89 4cbd e561 b63c
000000c0: 7333 a1bc c552 8c3d 9f61 c23c f707 6f3d
000000d0: a63c adba 5356 8abd 3402 cdbd 3e07 9bbd
000000e0: 0e2d 2c3d 5882 1abc b184 f6bc ebbe cc3c
000000f0: b23b 163c 700f 803b 564e 08bd b221 b63b
00000100: 8b7f 263d 8102 9c3c 483b a23d 8963 e23d
00000110: 13a2 b23d b37b 773d 7d34 0b3d babd bebc
00000120: 226a 483d 21ff 9c3c 25ae 9ebd 7e58 9cbd
00000130: e30f f63c ed1d 00bd e0cc a9bb cab3 a63c
00000140: 977e 1fbd 4aef 473d e46a 1fbd 5a8d 7abd
00000150: 312e 11be c877 46bb 123f 9c3a c5ce 9cbd
00000160: a8ea 52bb 5790 1b3d d245 bbbd cddb 2cbd
00000170: 8480 943d 6151 ca3b ce1b 3dbb 94b7 643d
00000180: 8922 023c e619 013d 313e 8b3d e640 9a3d
00000190: de84 e0bc 4058 72bd fc14 013d 7865 d4bc
000001a0: 03de 993d fad8 6e3d 1843 633d dabc ad3a
000001b0: 190d e7bc 301b 6b3c c033 fd39 375a a53c
000001c0: 2ce7 e9bc ffb1 193d f6d0 72bd 0405 c3bd
000001d0: 97d6 4bbd af8f a2bd bc7e b2bd 8ff9 59bd
000001e0: fb5d 3cbd 9fb1 89bd 476b ea3d 1a3d cd3d
000001f0: 5cf0 b5bc e9a5 bebc b5ea 163d d526 233c
00000200: abca cc3c 9760 27bd bbec 4d3d cf1a 9c3c
00000210: bcf7 84bd 57a5 b2bd d767 41bb a9fb af3c
00000220: 3ed8 a33d d2c7 d03c 4b68 03bd 09e7 5cbc
00000230: fa2f 163c fd8f 493c 7160 26bd 9a2c 67bd
00000240: 6f5f c53a 80f4 9f3c 1843 3abd 1725 3ebc
00000250: 048f 2a3d 869d a33c 96d6 943c f63f df3b
00000260: 88cc bb3c 88ad 07bd 0342 c039 bfea 49bc
00000270: 689f 15bc 2056 dc3a ecd5 513d c4af d1ba
00000280: 85b6 7e3c 6fc9 ba3b d53d 8bbd d6c0 fbbc
00000290: 235f d6bd f196 35bd 079f 1e3d 9dad a5bc
000002a0: 725a 8ebd 8529 20bc 6fa5 2f3d 69f9 9d3c
000002b0: 846c 12bd cbf2 853d 3a0b d73b d02a a6bd
000002c0: 6ef8 e5bb c1d8 44bd 3e1d 243c 2892 83bc
000002d0: c638 99bd 6a23 a93c 89d0 3b3b 98cc a8bd
000002e0: 3108 a9bb 35c1 1ebd 705f 4e3c 106b 75bd
000002f0: cc69 f0bc 4d56 8cba 6395 453d ed6a 3d3c
00000300: cb5b 7b3c b138 06bd f017 7fbc 10ae 4c3d
00000310: 2e0f ca3b cd75 0fbd 4881 90bd 4abc 073b
00000320: 3a28 93bd 6bcc e63b 8036 c4bc 9677 0dbd
00000330: a3c6 45bc 4f83 00bd 7aff d0bb 7a4b 843b
00000340: 13db 113d 9f51 b93c ca98 e6bc c5d6 9cbd
00000350: f226 2f3c 0940 b7bb c6ff d3bc 6abd e5bc
00000360: 80d9 a13c 86e9 a7bc 871c fbbc 76cc 6b3d
00000370: 3bc9 e7bc 13cf 0f3c ec0f 57bd b86e c8bc
00000380: 9157 80bd bb9a 173d 597a f53c 5f53 65bd
00000390: d082 ecbc 2c69 723c d6f2 18bc 99b6 12bd
000003a0: 5804 d6bc 70e9 3dbd 9d82 f9b9 c52f 723c
000003b0: b534 cdbc 8c17 d33c 3859 7e3c 3d01 96bc
000003c0: 7ca5 153d c033 46bd 7608 3abd 2d61 003c
000003d0: 9298 d6bb 5183 a6ba c025 363c 6e6e 2ebd
000003e0: dbb1 323d caa1 803c 09a0 963b 8e42 aabc
000003f0: 94f2 3dbd 595a 87bd 3e59 17bc 392a 443d
-0.02449219 0.017141825 -0.032297056 0.029787095 0.06733003 0.033359233 -0.092228614 -0.04072512
-0.087862045 -0.022348473 -0.0067930766 0.01686201 -0.059920885 0.026644839 0.074878834 -0.04267399
-0.038586453 0.02255196 0.0072289417 0.05561108 -0.04172428 0.03644116 -0.067864195 0.010653135
0.017016705 0.040558778 -0.022519117 -0.05308849 -0.08744674 0.0022251313 0.0028815665 -0.00096241204
-0.027457882 -0.034067582 0.08053757 0.015768392 0.058674846 -0.035024352 0.06672334 0.012179982
-0.031484265 -0.023773914 0.0506253 0.015557043 0.022090144 -0.011246779 -0.049935866 0.022263477
-0.019677853 0.068517245 0.02372819 0.058357205 -0.0013216927 -0.06754746 -0.10010186 -0.07569741
0.042035155 -0.00943049 -0.030092569 0.02499338 0.009169506 0.0039080903 -0.033277832 0.005558216
0.04064898 0.019044163 0.07921463 0.11054141 0.087223195 0.060420703 0.033985604 -0.023283828
0.04892934 0.019164624 -0.07748059 -0.07634066 0.030036872 -0.03127854 -0.0051818937 0.020349402
-0.038939085 0.04881219 -0.0389203 -0.06116996 -0.14177777 -0.0030283798 0.0011920652 -0.07656626
-0.0032183323 0.03797945 -0.091441765 -0.042201806 0.07251075 0.006174252 -0.0028855684 0.055839136
0.007942804 0.03151884 0.067989714 0.0753191 -0.027407106 -0.059166193 0.031514153 -0.02592729
0.075130485 0.058312394 0.055483907 0.0013255135 -0.028204488 0.014349744 0.00048294477 0.02018462
-0.028552614 0.037523266 -0.059281312 -0.09522441 -0.049765196 -0.07937562 -0.08715579 -0.053216513
-0.045988064 -0.06723332 0.11446243 0.1002142 -0.022209339 -0.023272472 0.036844928 0.009957989
0.024998983 -0.0408636 0.050274592 0.019055752 -0.06492564 -0.08722942 -0.0029511356 0.021482306
0.08000229 0.025485907 -0.032081883 -0.013482817 0.009166712 0.012302396 -0.040619317 -0.05643902
0.0015058349 0.019525766 -0.04547414 -0.011605523 0.041640297 0.019972574 0.018168729 0.0068130447
0.022924677 -0.033124477 0.00036670276 -0.012324034 -0.009132244 0.0016810335 0.051229402 -0.0015997817
0.015546446 0.0057002823 -0.06798903 -0.0307316 -0.10467365 -0.044333402 0.03872588 -0.020224387
-0.06950845 -0.009775524 0.04288238 0.019283967 -0.03574802 0.0654045 0.0065626176 -0.081136346
-0.0070181405 -0.048058275 0.0100167375 -0.016060904 -0.07481532 0.02064677 0.0028658232 -0.08242148
-0.005158447 -0.038758475 0.012595996 -0.059916556 -0.029347323 -0.0010706872 0.04823817 0.011561138
0.015341709 -0.03276891 -0.015569672 0.049970686 0.0061663603 -0.035024453 -0.070559084 0.0020711594
-0.07185407 0.0070434115 -0.023951769 -0.034537874 -0.012071284 -0.031375226 -0.0063781114 0.004037318
0.035609316 0.022621928 -0.028149027 -0.076581515 0.010690438 -0.0055923504 -0.025878798 -0.028044421
0.019757032 -0.020497095 -0.030653251 0.057568036 -0.028294196 0.008777398 -0.05250542 -0.024466857
-0.06266702 0.037012797 0.029965566 -0.055987712 -0.02887097 0.014795583 -0.00933524 -0.03581867
-0.026125118 -0.0463652 -0.00047590295 0.014781897 -0.025049547 0.025768064 0.015524201 -0.018311137
0.03653477 -0.048389196 -0.045418225 0.0078356685 -0.0065489495 -0.001270393 0.011117399 -0.042585783
0.043626647 0.015702147 0.0045967144 -0.020783689 -0.04637392 -0.06609029 -0.009237586 0.04789183

forward_fea_seq.1.fc2.bias f4 [64]
00000000: 89da adbd af92 833d 2a8e 813d c167 223d
00000010: c67f be3c 68a2 ef3c ef23 9cbc 5332 bfbc
00000020: 25c2 a33d 9a09 0c3c 0a46 6e3d 0eba 763d
00000030: f15b 8e3d 4058 383d f061 a2bd a7a9 683d
00000040: 56b4 bebb 2f98 f1bb cce0 74bd 4196 96bc
00000050: af35 873d a6a5 933d 11f5 4fbd 7cbe b73d
00000060: bce7 4f3d 0333 a53d e830 4f3c 1abe afbd
00000070: 2c34 803d 3846 4e3d e7d1 9a3d dc2c e53c
00000080: d5da ccbb 14b5 52bd cd91 88bd 1277 b53c
00000090: d4d7 e53b f362 9e3d 2c29 0cbd 19a9 a5bb
000000a0: 107e 1f3d e480 13bd 3ed8 80bb 106c babd
000000b0: 0aac 483d a473 b7ba c631 42bc e369 f63c
000000c0: d6f8 d7bc c74b c83d 8fdc f6bc c92a 343d
000000d0: 405d 5e3d d4cb be3d e921 903d f642 8c3d
000000e0: 9bd1 6d3c 1259 ddbc 0b0a 30bd e1a1 97bd
000000f0: 1bf1 e7bc 8261 bcbd 286d 883d 0b9f 6a3d
-0.08488948 0.06424462 0.06325944 0.03964973 0.023254286 0.029252246 -0.019060103 -0.023339426
0.079960145 0.008547211 0.058172263 0.06023603 0.0695113 0.045006037 -0.07928836 0.056802418
-0.0058198376 -0.007372878 -0.059784696 -0.018382194 0.06602036 0.07209329 -0.050770823 0.08971879
0.05075811 0.0806637 0.0126459375 -0.08581181 0.06259951 0.050359935 0.07559567 0.027975492
-0.0062516727 -0.05144222 -0.06668434 0.022151504 0.007014254 0.07733717 -0.034218952 -0.0050555584
0.038938582 -0.03601159 -0.003932028 -0.091026425 0.048992194 -0.0013996256 -0.011852687 0.030079788
-0.026363771 0.097800784 -0.030134467 0.043986116 0.05428815 0.09316221 0.07037718 0.06848709
0.014515306 -0.027020011 -0.042978328 -0.07403923 -0.02831321 -0.09198286 0.06661445 0.05728058

forward_fea_seq.1.fc3.weight f4 [128, 64]
00000000: 3298 133d afdd 133c f975 7f3b e4e2 2dbc
00000010: cbef a83c 6d88 cc3c d8b3 2cbc d7d5 d0ba
00000020: 7543 293d 2786 bfbc 8336 4dbc 6d5d 4bbd
00000030: f34c 883c 5fc2 e53a fdd8 e2bc f821 883d
00000040: 53d6 703c 83a3 eb3c f37f b539 6b9d 153d
00000050: ab7e 0f3d 9e9c b33c 9daa ee3b 933b dc3c
00000060: c4ba ccba 16b2 0abb 9d89 b5bc b1a1 afba
00000070: 47e5 56bd dff6 183c b6dc f53c 493c d03c
00000080: b0f7 033b 7b15 3038 5f1c a3bc 3dfc 60bc
00000090: f825 14bd 469c a63c ec25 55bb af31 18b9
000000a0: deb7 263c 4126 09bc 4c54 f3bb d3cc 1bbc
000000b0: 602c 0d3d 8479 0a3d 9082 64bd 08c2 98bc
000000c0: b9f7 4b3c 71be 813d 6f75 c53c c5f6 2bbc
000000d0: d46a 8a3c 3fd8 b83c 6782 2c3c 334f 483d
000000e0: 0bbf 0f3d a2b0 b43b f1dd a53b 6a4b efbc
000000f0: aa7f 56bc 5c89 99bc 0292 0d3d b2a6 dabc
00000100: 0cd1 bb3a a2e8 b13c 8dae 1ebc 7f4f bcbc
00000110: 7ee5 88bc 41b8 723c efb3 3c3c f4ba 4a3c
00000120: 0da8 423d b3f1 ddbc b3a4 333d c66b 9f3b
00000130: 82e5 2d3d 5378 30bb f1cd a9bc 1152 193d
00000140: 3a9c 2abc 224f 113d 13a0 e8bc 6d2f d83b
00000150: 81ec 2e3d 53ee 44bc 9f52 bd3c 98d9 093d
00000160: 0b2e 66bc 34d7 4fbc 8ff7 4d3b a5c0 6abd
00000170: 81eb ccbc 7027 d33c 7f9a 17bc 0c77 b53c
00000180: f6b8 f73c f8af a33c cece b0bc d945 eb3b
00000190: eb5f 04bd 809a adbb 6072 37bc 8460 3cbd
000001a0: 5088 0c3d d484 49bc 0d4b 833c ff0d e7bc
000001b0: ba6f 30ba 2ca2 123d e0a1 1e3c 23aa 663d
000001c0: 8e00 24bc 4e82 373c 98ee d7bc a4a0 f73a
000001d0: c20f 0abd 0d42 af3c d582 cbbc f0c1 023d
000001e0: 7ad3 063d ddf9 653b df27 dc3c 20f2 acbc
000001f0: 1850 aabc 4e03 db3c 6686 5bbc ea15 ae3c
00000200: eed5 73bd 5435 44bd 68ca 353d ad4e 33bd
00000210: d5eb 4a3c f594 77bc 68c8 68bd e41c 973d
00000220: bf5b 463c 1e6e c33b faf4 03bd ba74 43bd
00000230: 41a3 16bc 0f1a 44bc 0ddb f3bc bc5b 333d
00000240: a0ad 08bd 3be9 8b3d 3559 f6bc efaf e03b
00000250: b9ec 12bd 2e17 84ba 6169 813c 7c73 d83c
00000260: f294 af3b f08e 803c d345 3bbd 18f1 5dbd
00000270: 5b3f d53a c350 2c3d cf4d da3c 11d5 68bb
00000280: 166b 113d 04e8 ba3c ac0d 443c 432b 19bd
00000290: 09a1 21bc 940f 34bd 1486 b1bb 9745 8d3d
000002a0: 8df9 f5bc 5472 debc d300 0c3c ce5e 4abd
000002b0: 8819 23bd 00fb 9a3d 33f6 18bd 0d08 d8bc
000002c0: 544c 1fbb 6931 0b3d d9d5 ad3c ec7a 81bc
000002d0: 0362 3fbd f833 a43c c99c 6cbc e154 9f3c
000002e0: 7f26 7f3d e13d 033d d3a0 023d d366 87bd
000002f0: 0c1b 76bc bca0 cf3c 15a7 50bd 91a6 823c
00000300: b579 973c 40cc 79bc c1e4 8abc 1134 1b3c
00000310: c9da 96bc 8100 a33b 7af4 4a3c 0bc3 44bc
00000320: e417 a2bd eeb5 0f3d c920 153c bd6f c2bc
00000330: 8012 67bc 44ca d03c 448d 213d b803 89bd
00000340: b92c 823c 9da0 0b3c fff3 3d3c a5c4 13ba
00000350: 3c50 833c 092b 843c 67d0 4e3d 75be f93c
00000360: ef63 babc bf71 cdbc f68e 59bc c1b9 1f3d
00000370: 90d2 11ba 2211 a1bc 52b7 20bd 7c91 5d3b
00000380: 8187 113d 20a1 0b3d 50ac b9bc fa38 3abb
00000390: e59a cabb c2e9 4cbd 300a bf3c ee3a f2bc
000003a0: 2fa7 0dbd 8de4 4bbb ab63 cabc efd4 db3a
000003b0: 0ff8 633b 8dd5 a7bc b8fc 853c 6b08 223c
000003c0: 73de e63b d1b4 5c3b 399d 5c3d 0abc 953c
000003d0: feef f7bc 359c fbbb 0ae2 043d 760d 3fbd
000003e0: 3713 4abd 8f81 0b3d 5554 aa3c 1772 6a3c
000003f0: dbf8 05bb 1386 4d3d 0a1e 8dbc 0ca7 b3bc
0.036033817 0.009025021 0.003898023 -0.010613177 0.020622155 0.024967397 -0.010540925 -0.001593287
0.041324098 -0.023379399 -0.012525204 -0.049649645 0.016638255 0.001752924 -0.027691359 0.06647104
0.014699536 0.028764492 0.0003461834 0.03652708 0.03503291 0.021925267 0.0072835223 0.026883876
-0.0015619625 -0.0021163276 -0.022160346 -0.0013399628 -0.05246475 0.009336202 0.03001247 0.025419371
0.0020136647 4.1981675e-05 -0.01991099 -0.013732013 -0.036169022 0.020338189 -0.0032523824 -0.00014514358
0.010175673 -0.008370937 -0.0074258205 -0.009509283 0.034466147 0.033807293 -0.055788577 -0.018647209
0.012449198 0.06335152 0.024103848 -0.010495846 0.016896643 0.022564052 0.010529137 0.048903655
0.035094302 0.0055142203 0.005061858 -0.029210765 -0.013091961 -0.018742256 0.034563072 -0.026690815
0.0014329269 0.021717373 -0.009685171 -0.022987125 -0.016710993 0.014814437 0.011517509 0.012373675
0.047523547 -0.02709279 0.04385824 0.0048651425 0.042455204 -0.0026927188 -0.020728083 0.03743178
-0.010413224 0.035475858 -0.028396642 0.0065974505 0.042706016 -0.012019712 0.023110686 0.03365478
-0.014049063 -0.012685586 0.0031428074 -0.057312626 -0.02501464 0.025775641 -0.009253143 0.022151493
0.030239563 0.01998137 -0.021582987 0.0071799573 -0.032318037 -0.005297959 -0.011196703 -0.045990482
0.034309685 -0.012299735 0.016026998 -0.028204916 -0.0006730516 0.03579919 0.009682149 0.0563146
-0.010009898 0.011200501 -0.026358888 0.0018892479 -0.033706434 0.0213938 -0.024842659 0.031923234
0.032916524 0.0035091557 0.02687448 -0.021111548 -0.020790145 0.026734974 -0.013398742 0.021250684
-0.05953019 -0.04790242 0.044382483 -0.043776203 0.012385328 -0.015111198 -0.056831747 0.07378557
0.012106835 0.0059640547 -0.03221605 -0.04771874 -0.009194196 -0.0119691035 -0.029767537 0.043788657
-0.033368707 0.068315946 -0.030071834 0.0068569104 -0.035870288 -0.0010077709 0.015797319 0.026422255
0.005358332 0.015693158 -0.045720886 -0.054185003 0.0016269492 0.042069208 0.02664843 -0.0035527388
0.035502516 0.022815712 0.01196615 -0.037394773 -0.009865054 -0.04396017 -0.0054175947 0.06898039
-0.030026222 -0.027154125 0.008545118 -0.04940682 -0.03981927 0.07567406 -0.03734417 -0.026371026
-0.002430697 0.033982668 0.021220135 -0.015805684 -0.04672433 0.020044312 -0.014441677 0.019449653
0.062292572 0.032041434 0.031891655 -0.06611409 -0.015021097 0.025345199 -0.05094059 0.015948566
0.018490652 -0.015246451 -0.016954781 0.009472863 -0.018414872 0.0049744253 0.012387389 -0.0120093925
-0.07914713 0.03508561 0.009102055 -0.023734922 -0.014103532 0.025487073 0.039441362 -0.066901624
0.015890466 0.00852218 0.011593818 -0.00056369073 0.01602947 0.016133802 0.050491717 0.030486325
-0.02275273 -0.025078652 -0.013278713 0.038995508 -0.00055626873 -0.01966149 -0.039237328 0.003380864
0.035529617 0.034089208 -0.022665173 -0.0028415308 -0.0061830156 -0.050027616 0.023320287 -0.029569115
-0.034583267 -0.0031111569 -0.024705729 0.0016771833 0.0034785306 -0.020487571 0.016355857 0.009889702
0.007045561 0.003367711 0.053860877 0.01827814 -0.030265804 -0.0076785334 0.03244213 -0.046643697
-0.04933473 0.034059104 0.020792166 0.014309428 -0.002044252 0.05017669 -0.017226238 -0.02193024
